py-server/artifacts/models/zk_model.onnx (onnx, 865 bytes, 3 tensors)

net.0.weight f4 [8, 6]
0	0x3dd7ff65	0.105467595
1	0xbdb56b1e	-0.088583216
2	0xbe3a6fed	-0.18206759
3	0x3e65d252	0.22443512
4	0xbc81bfe6	-0.015838575
5	0xbdc55739	-0.09635777
6	0x3d67e2e0	0.05661285
7	0xbe302590	-0.17201829
8	0xbcb0cf68	-0.021583274
9	0xbb5b3b87	-0.003345223
10	0xba972df0	-0.0011534076
11	0xbe9f09ef	-0.31062266
12	0x3e84eb05	0.25960556
13	0x3e91f3ab	0.28506216
14	0x3e46b19f	0.19403695
15	0x3e13270c	0.14370364
16	0x3dcd87f6	0.10035698
17	0xbed08a08	-0.4073031
18	0xbdff90a0	-0.12478757
19	0x3a9fd447	0.0012194001
20	0xb99114cc	-0.0002767205
21	0xbe8a3f07	-0.2700121
22	0xbc630f02	-0.013858559
23	0xbe5ca434	-0.21547014
24	0x3ea1fab6	0.3163659
25	0x3e3eac01	0.18620302
26	0xbe3ddb3d	-0.18540664
27	0xbe730a1a	-0.23734322
28	0x3c918f7a	0.01776861
29	0x3dbf70db	0.09347697
30	0x3e4ac3d1	0.1980126
31	0x3da299e4	0.079395086
32	0x3e039fd5	0.1285394
33	0x3e1fb3ab	0.15595882
34	0x3ebbe39c	0.3669709
35	0xbd57db92	-0.052699633
36	0xbea3689c	-0.31915748
37	0x3de7143a	0.11283155
38	0x3e8f9733	0.28045043
39	0xbdb03e81	-0.08605672
40	0xbe24a40a	-0.16078201
41	0x3da6b4c6	0.081399485
42	0x3daadcdf	0.08342909
43	0xbce089df	-0.027409492
44	0x3e5b8630	0.21437907
45	0xbe4e3472	-0.20137194
46	0xbea0ff7c	-0.3144492
47	0xbea9db29	-0.33175018

net.0.bias f4 [8]
0	0xbeadf07e	-0.33972543
1	0x3d40417f	0.046937462
2	0xbecb71dd	-0.39735308
3	0xba638256	-0.00086787844
4	0xbe289112	-0.1646159
5	0xbe8b270c	-0.27178228
6	0x3e39ded8	0.18151414
7	0x3eabfe2b	0.33592352

net.2.weight f4 [1, 8]
0	0x3e224c42	0.15849403
1	0x3e5bce76	0.21465477
2	0x3e9d7651	0.3075433
3	0xbe447555	-0.19185384
4	0x3ea93142	0.33045393
5	0xbe76eedc	-0.24114555
6	0x3dffbe8d	0.124875166
7	0xbe933d8c	-0.28757894
