py-server/artifacts/models/zk_model.onnx (onnx, 865 bytes, 3 tensors)

net.0.weight f4 [8, 6]
0.17951462 -0.3145785 -0.008697667 -0.144578 0.28982866 -0.08324601 0.032296535 0.28471562
0.25113013 -0.05147386 -0.12840591 -0.12000924 -0.22566664 0.34078923 0.054666072 -0.15292346
-0.23478626 -0.12398101 -0.29901952 0.20890652 0.019712808 -0.3984979 -0.23924994 0.043469504
0.21056148 -0.0490208 0.33801892 0.027072523 -0.13440256 -0.09266438 0.38298196 0.298796
-0.32650834 0.15545219 -0.0017888526 -0.24922317 -0.062156945 0.13087858 -0.27094248 0.25882035
-0.041697927 0.33019468 0.3147258 0.19075401 -0.08661435 0.038005903 0.30978778 -0.28568926
00000000: aed2 373e 6f10 a1be a980 0ebc 410c 14be
00000010: 6c64 943e e27c aabd 5f49 043d 3fc6 913e
00000020: 2194 803e 41d6 52bd d77c 03be 68c7 f5bd
00000030: 2815 67be ed7b ae3e 88e9 5f3d f897 1cbe
00000040: cf6b 70be c1e9 fdbd 1619 99be 97eb 553e
00000050: c17c a13c eb07 ccbe f0fd 74be 140d 323d
00000060: 6e9d 573e 09ca 48bd d110 ad3e 32c7 dd3c
00000070: d3a0 09be d3c6 bdbd 3616 c43e cafb 983e
00000080: 1a2c a7be dc2e 1f3e ef77 eaba 5c34 7fbe
00000090: 4898 7ebd 0905 063e f9b8 8abe 1a84 843e
000000a0: 72cb 2abd 470f a93e bd23 a13e 0555 433e
000000b0: dd62 b1bd 14ac 1b3d 819c 9e3e dd45 92be

net.0.bias f4 [8]
-0.3342301 -0.059137303 -0.14799748 -0.23547986 -0.22413822 0.2909892 -0.13638924 0.26535997
00000000: 3520 abbe f539 72bd a78c 17be a221 71be
00000010: 7d84 65be 89fc 943e 9fa9 0bbe 43dd 873e

net.2.weight f4 [1, 8]
-0.18334861 -0.22013897 -0.0024435478 -0.21287361 -0.008392323 0.29423133 0.2351011 -0.291353
00000000: bdbf 3bbe 1c6c 61be ee23 20bb 8afb 59be
00000010: f47f 09bc 7da5 963e 58be 703e 382c 95be
