py-server/artifacts/models/zk_model.onnx (onnx, 2785 bytes, 3 tensors)

net.0.weight f4 [16, 32]
000000 bb 74 2d be ef 1e bc bd 1d 36 b1 3c d7 b2 51 3c
       -0.1693906 -0.091855876 0.021632249 0.012798986
000010 3a 66 e2 3c 9b 80 97 bd f3 f3 28 be 03 c1 33 be
       0.027636636 -0.073975764 -0.16499309 -0.17554097
000020 27 f7 cd bd 94 7a c9 3d 51 65 41 3c d9 35 03 be
       -0.10056906 0.09837833 0.011803941 -0.1281351
000030 ab 20 c2 3d 39 7e 19 be 1c 54 b1 bd 36 ea 82 3b
       0.09478887 -0.14989556 -0.08658621 0.0039952053
000040 9a 0c cd 3b 34 ca de 3d fd 5d 8d bc a4 32 26 3e
       0.0062576057 0.10878411 -0.017256731 0.16230255
000050 25 73 98 bd 0c 66 1b 3d e4 3f 00 3e 24 f9 f5 3d
       -0.07443837 0.037939116 0.12524372 0.120104104
000060 27 b2 b8 bd 9c 93 03 be 0c 6a 1c 3e 1d c0 82 bd
       -0.09018355 -0.12849277 0.15274829 -0.06384299
000070 3c 3d 02 be b6 24 d7 3d 40 dd 2a 3e 57 ab 10 be
       -0.12718672 0.10505049 0.16685963 -0.14127861
000080 19 9b 09 3e 87 b4 c7 3d 86 ac 95 bd cb 30 6f 3c
       0.13438071 0.0975123 -0.07308297 0.0145990355
000090 e8 78 88 3b 2f 9a 26 3d d1 c9 41 3d 44 61 08 be
       0.004164804 0.040674385 0.047311608 -0.13318354
0000a0 95 fe 97 bc 2b 87 10 be 6e 0e 0b be 6b 00 2a 3e
       -0.018554011 -0.14114062 -0.13579723 0.16601722
0000b0 5c 47 d1 3d 1c 4b 6b 3d c8 0f b0 3d 8e ce c5 bd
       0.10218689 0.057444677 0.0859676 -0.09658538
0000c0 73 1d 06 3e 0d 0f ce 3d 90 20 43 bd 1d 41 ac 3d
       0.13097171 0.100614645 -0.047638476 0.08410857
0000d0 b8 61 8e 3d ff 5b 09 be 8e d3 1f 3e b6 6a ed bd
       0.06952232 -0.13414 0.15608045 -0.11592619
0000e0 b0 91 35 3d 5c 4c e9 ba 1d cb 31 bd d9 76 1f 3e
       0.04432839 -0.0017799246 -0.043406595 0.1557268
0000f0 f8 17 a1 bc ef 58 9d 3d 9b 5a 01 bd a2 f8 a3 3d
       -0.01966475 0.07682978 -0.03158055 0.08006407
000100 13 74 db bd 30 a7 41 bd f9 73 fb 3d ba 24 4a bd
       -0.10715499 -0.047278583 0.122779794 -0.04935143
000110 7f 9f 19 be ce d7 e2 bc 2b 27 91 3c 04 b3 29 be
       -0.15002249 -0.027690794 0.017718872 -0.16572195
000120 0b ea d6 3d c3 3d 28 3e d2 07 06 3e 3c 1b ce 3d
       0.10493859 0.1642981 0.1308892 0.10063788
000130 aa db e4 3d ac c4 03 3e 16 8e a8 3c 66 97 4c 3c
       0.1117471 0.12867993 0.020575564 0.012487268
000140 72 be a6 3d ee 87 9c 3d 55 e4 8a bc 73 a9 f2 ba
       0.08141793 0.07643114 -0.01695458 -0.0018513635
000150 e5 a1 0a 3e cb 25 27 bd d3 86 59 bd 07 52 95 bd
       0.1353832 -0.040807527 -0.053107094 -0.07291036
000160 81 79 8c 3b 78 60 34 be 98 55 33 3e 6b 24 c5 3d
       0.0042869453 -0.17614925 0.1751312 0.09626087
000170 d2 bd 0e 3e e1 13 1e 3e 7d 6e 1e 3e 69 d4 61 3d
       0.13939598 0.1543727 0.15471835 0.05513421
000180 95 1a c4 bd 9b 18 00 bd 66 7b a9 bd 79 dd 99 bd
       -0.095753826 -0.031273466 -0.082754895 -0.07512946
000190 64 82 75 bd 58 8c cb 3d 6f 19 a8 3d a8 c1 57 3d
       -0.059938803 0.09938878 0.08207976 0.05267492
0001a0 09 9b 86 3d 71 12 d0 3d df 63 bf 3d 52 bd 88 3c
       0.06572539 0.101597674 0.09345221 0.016691837
0001b0 6d 35 d1 3d 9e 30 8e 3c ff 3c 1f 3e 51 48 2d 3e
       0.10215268 0.017357167 0.15550612 0.16922118
0001c0 4a 45 c1 3d b2 db e2 bc 64 56 15 3e 9a 71 0b 3d
       0.09437044 -0.02769265 0.14583737 0.034043886
0001d0 a7 17 98 3d 4c 2a 9b 3d 33 b2 00 be 09 05 25 be
       0.07426386 0.07576427 -0.12567978 -0.16115202
0001e0 9f 47 2c 3d e4 d3 99 bd d6 4b d7 3c 1a 77 f4 bd
       0.04206049 -0.07511118 0.026281279 -0.11936779
0001f0 60 b7 84 bd a0 0d e1 bd bb b4 f4 bd 38 13 a1 3d
       -0.064802885 -0.10988927 -0.11948534 0.07864994
000200 5e be f0 bd b9 7a 03 3d 82 1e d8 3d d1 21 c2 3d
       -0.1175506 0.03209946 0.10552694 0.09479106
000210 77 09 ff 3d cd 57 a2 bc 8f 90 57 bd 42 58 0f bd
       0.12452977 -0.019817257 -0.052628096 -0.03499628
000220 9d 01 f8 3d 6c 70 88 bb 0e 1e bd bc 54 46 d8 bc
       0.12109683 -0.0041637924 -0.02308562 -0.026400723
000230 ba 92 1b bc 8f ec c4 bd 33 87 33 3e 47 7f 31 3e
       -0.009495432 -0.096154325 0.17532043 0.17333709
000240 e9 7d 04 3e 69 a1 58 bc 84 af c2 bd 23 1c 1b be
       0.12938656 -0.013222077 -0.09506133 -0.15147452
000250 03 42 d9 3d 86 2d 86 3c 99 0d f9 3d 5b e1 09 bb
       0.10608294 0.01637913 0.12160797 -0.0021038863
000260 11 8b d7 bd 0c cc da bc cb c0 24 be 4a ad 06 3e
       -0.10524572 -0.026708625 -0.1608917 0.13152042
000270 cd 29 99 3d 17 0b d5 3d d8 ab 8c 3d a3 9d 53 bd
       0.07478676 0.10402506 0.06868714 -0.051664006
000280 e9 72 09 be 23 32 32 be 47 ca 52 3d 43 7c 33 bd
       -0.13422741 -0.17401938 0.051462438 -0.043819677
000290 94 84 81 bd 3a 48 1c 3e e7 ed 26 be 1d eb fa 3d
       -0.063241154 0.15261927 -0.1630169 0.122518755
0002a0 97 69 05 bd b8 6e ae bd 48 c7 d5 3d 7e d2 d1 bd
       -0.0325714 -0.08517212 0.104384005 -0.10245226
0002b0 e4 1d 1d bd ef 0b 5f bb e7 97 2e be 72 cc 02 3d
       -0.038358584 -0.0034034213 -0.17050134 0.031933255
0002c0 88 87 1a 3c 68 77 fe bd 2b 72 47 3d 91 86 d3 bd
       0.009431727 -0.12425119 0.048692863 -0.10328401
0002d0 d2 4f 66 3d 75 a4 21 3e 4f 33 0f 3e 66 0e 97 3d
       0.056228466 0.15785392 0.13984416 0.07375793
0002e0 f4 91 b7 3d 19 f0 26 3d d9 8b a9 bc 1c 63 0f 3e
       0.08963385 0.04075632 -0.020696567 0.14002651
0002f0 99 4d 31 be 42 c1 1c bd be 07 af 3d df 31 1d be
       -0.17314757 -0.038270243 0.085463986 -0.15351056
000300 c2 89 73 bd 26 b7 81 bd cb 7b da bb 33 4b 28 3d
       -0.059457548 -0.06333761 -0.0066675893 0.04108734
000310 37 52 1c 3e 80 5d 2a 3e 88 6d cd bd 9b 67 b2 bd
       0.15265737 0.1663723 -0.10030657 -0.087111674
000320 f3 72 e7 bb a4 74 7e bd c1 ed b7 3c c3 4b 65 3d
       -0.0070632636 -0.062122956 0.022452237 0.055980455
000330 ef 58 43 3d df dd 08 be 89 5c 88 3d 2c 80 7f 3c
       0.047692236 -0.13365887 0.06658275 0.015594523
000340 bd 7d 12 3e 5b ea 58 bd 72 6e fc 3d 06 54 ff bc
       0.14305778 -0.052957874 0.12325753 -0.031167995
000350 13 5a ba 3d 88 ce 0e be 36 c4 12 be 6d e1 ac bd
       0.090992115 -0.13945973 -0.14332661 -0.08441434
000360 eb 59 0e 3e 64 cd 21 3e 8c f2 85 bd 4f e6 29 be
       0.13901488 0.15801007 -0.06540403 -0.16591762
000370 33 55 1d 3e e1 67 8d bd cb ea 2b 3e e9 12 4f bc
       0.15364532 -0.06904579 0.16788785 -0.012638786
000380 63 00 b9 3d 26 d8 13 be 79 76 09 3e d2 aa 2f bd
       0.09033277 -0.14437923 0.134241 -0.042887516
000390 77 16 bf 3d a0 77 08 bd e0 78 1b be 1b 7b 04 be
       0.09330457 -0.03331721 -0.15182829 -0.12937586
0003a0 8d f5 7f bd 05 0d ac 3c 11 33 0b 3d be 5e 93 3d
       -0.062490035 0.021002302 0.033984248 0.07195805
0003b0 5e 62 e3 3d c0 1e 11 3d 95 d8 16 bd 53 00 07 3e
       0.111027464 0.035429716 -0.036827642 0.13183717
0003c0 df c1 c1 bd ec 2e c8 3d 53 2a 2f 3e 10 db 69 3d
       -0.09460806 0.09774575 0.17105989 0.05709368
0003d0 46 af 70 3d 9b 38 8c 3d 8f 17 6f bd 6a cf 0f 3e
       0.058760904 0.06846734 -0.058372077 0.14043966
0003e0 cd 9d 1f be 7e 6f 4c 3d 41 b3 b9 3d b3 89 76 bc
       -0.1558754 0.049911015 0.09067393 -0.0150474785
0003f0 96 0b 9a bd f9 d3 2a be c4 31 05 be 39 e5 05 3e
       -0.07521741 -0.16682424 -0.13007265 0.13075723

net.0.bias f4 [16]
000000 af 53 39 bc f1 69 ec 3d df 32 6b bd f5 c5 65 3d
       -0.011311456 0.11543644 -0.05742156 0.05609699
000010 b7 08 ff 3c 06 a9 34 3b 9f 69 7d bd b7 2e 2b be
       0.031132085 0.0027566566 -0.061868306 -0.16717039
000020 37 e4 e6 3d 73 86 4c bd a6 30 cc bc 94 1b 02 3e
       0.11273997 -0.04993291 -0.024925541 0.12705833
000030 ea f7 8e bd 11 82 31 3e 92 d3 82 3d 74 a7 13 3d
       -0.069808796 0.17334773 0.0638801 0.036048368

net.2.weight f4 [1, 16]
000000 a8 d3 85 bd 28 ec 49 3e 4c 28 cd 3d ca 2e 59 3e
       -0.06534511 0.19718993 0.10017452 0.21209255
000010 cc 9c 62 be 78 21 2b be 60 3c 52 3d 14 c7 98 3d
       -0.22130126 -0.16711986 0.05132711 0.07459846
000020 a6 2b 65 3e c8 ba 0f be 78 49 fa 3d 2c b6 08 be
       0.22379932 -0.14036095 0.12221044 -0.13350743
000030 8c f5 11 3e 80 1b 6b bd 90 f5 60 3d 6a 89 26 be
       0.14253825 -0.057399273 0.054921687 -0.16263357
