py-server/artifacts/models/zk_model.onnx (onnx, 865 bytes, 3 tensors)

net.0.weight f4 [8, 6]
00000000: 8d1f 643e f9cd 40be 06f3 a83e e6f4 a43c
00000010: c3c6 c13c a0e1 cabe f938 7c3e 7346 bf3e
00000020: 1ad1 233c d114 c6be a05e cd3e 86e9 99bd
00000030: d626 483d de95 ba3c 0c01 20be d171 30bd
00000040: 6761 783e 012b a1bc 5504 663e 7a3b 8e3e
00000050: 4c6c a13e ea59 573e b277 edbd 848a 393e
00000060: 481d 3f3e 6af1 c0be e1e1 113e 5b79 15be
00000070: 74b6 d0be 7d40 2e3e 459f 2d3e 4e1b dab9
00000080: 3fe5 8d3e 5c22 a83e d457 bebd d4b4 ae3b
00000090: ad1e 803e 476a b2be 1cf9 5b3d 33bc ba3e
000000a0: e228 abbb c8c2 ef3d e8f2 3cbe 08e4 32be
000000b0: bb98 9fbe a8db cdbe 4e20 243e 99b1 d83d
0.2227766 -0.18828572 0.32997912 0.020136308 0.023654347 -0.39625263 0.24631108 0.37358436
0.009998584 -0.38687757 0.40111256 -0.07515244 0.04886516 0.02277654 -0.156254 -0.043077294
0.24255906 -0.019673826 0.2246259 0.27779752 0.31527936 0.21030393 -0.11595096 0.18119246
0.18663514 -0.37684184 0.14246322 -0.14597075 -0.407642 0.17016788 0.16955288 -0.00041600544
0.27713963 0.32838714 -0.09294096 0.005331615 0.25023404 -0.34846708 0.053704366 0.3647171
-0.0052233795 0.117070735 -0.18452036 -0.174698 -0.31171212 -0.40206647 0.16027948 0.10580749

net.0.bias f4 [8]
00000000: 26f2 193e 0f25 5cbe 34a2 b8be 546c c83e
00000010: 6577 ebbc 4be1 8a3e 6253 1cbe a37f bbbe
0.15033779 -0.21498512 -0.3606125 0.39145148 -0.028743455 0.2712501 -0.15266183 -0.36620817

net.2.weight f4 [1, 8]
00000000: 9754 003e e1f6 8bbe 7d8a 9fbd a372 64bd
00000010: f459 293d 4b67 65bd 5363 9c3b f627 2f3e
0.12532268 -0.2733679 -0.077900864 -0.05577339 0.04134555 -0.05600671 0.0047725826 0.17105088
